TensorFlow: 2.6.0
Model: "PRNet_Model"
_________________________________________________________________
Layer (type)                 Output Shape              Param #   
=================================================================
input_image (InputLayer)     [(None, 256, 256, 3)]     0         
_________________________________________________________________
conv2d (Conv2D)              (None, 256, 256, 16)      784       
_________________________________________________________________
resblock_1 (ResBlock)        (None, 128, 128, 32)      5728      
_________________________________________________________________
resblock_2 (ResBlock)        (None, 128, 128, 32)      5440      
_________________________________________________________________
resblock_3 (ResBlock)        (None, 64, 64, 64)        22208     
_________________________________________________________________
resblock_4 (ResBlock)        (None, 64, 64, 64)        21120     
_________________________________________________________________
resblock_5 (ResBlock)        (None, 32, 32, 128)       87424     
_________________________________________________________________
resblock_6 (ResBlock)        (None, 32, 32, 128)       83200     
_________________________________________________________________
resblock_7 (ResBlock)        (None, 16, 16, 256)       346880    
_________________________________________________________________
resblock_8 (ResBlock)        (None, 16, 16, 256)       330240    
_________________________________________________________________
resblock_9 (ResBlock)        (None, 8, 8, 512)         1381888   
_________________________________________________________________
resblock_10 (ResBlock)       (None, 8, 8, 512)         1315840   
_________________________________________________________________
deconv_1 (DeconvUnit)        (None, 8, 8, 512)         4194816   
_________________________________________________________________
deconv_2 (DeconvUnit)        (None, 16, 16, 256)       2097408   
_________________________________________________________________
deconv_3 (DeconvUnit)        (None, 16, 16, 256)       1048832   
_________________________________________________________________
deconv_4 (DeconvUnit)        (None, 16, 16, 256)       1048832   
_________________________________________________________________
deconv_5 (DeconvUnit)        (None, 32, 32, 128)       524416    
_________________________________________________________________
deconv_6 (DeconvUnit)        (None, 32, 32, 128)       262272    
_________________________________________________________________
deconv_7 (DeconvUnit)        (None, 32, 32, 128)       262272    
_________________________________________________________________
deconv_8 (DeconvUnit)        (None, 64, 64, 64)        131136    
_________________________________________________________________
deconv_9 (DeconvUnit)        (None, 64, 64, 64)        65600     
_________________________________________________________________
deconv_10 (DeconvUnit)       (None, 64, 64, 64)        65600     
_________________________________________________________________
deconv_11 (DeconvUnit)       (None, 128, 128, 32)      32800     
_________________________________________________________________
deconv_12 (DeconvUnit)       (None, 128, 128, 32)      16416     
_________________________________________________________________
deconv_13 (DeconvUnit)       (None, 256, 256, 16)      8208      
_________________________________________________________________
deconv_14 (DeconvUnit)       (None, 256, 256, 16)      4112      
_________________________________________________________________
deconv_15 (DeconvUnit)       (None, 256, 256, 3)       771       
_________________________________________________________________
deconv_16 (DeconvUnit)       (None, 256, 256, 3)       147       
_________________________________________________________________
deconv_out (DeconvUnit)      (None, 256, 256, 3)       147       
=================================================================
Total params: 13,364,537
Trainable params: 13,356,601
Non-trainable params: 7,936
_________________________________________________________________

**********************************************************************************************


==================Model Analysis Report======================

Doc:
scope: The nodes in the model graph are organized by their names, which is hierarchical like filesystem.
…
